assigment3/maraboupy/examples/wine_model.onnx (onnx, 799 bytes, 3 tensors)

fc1.weight f4 [5, 11]
000000 ed 9f f4 bd 1c 6e be 3c af a3 8a 3d 75 66 19 3e
       -0.11944566 0.023245864 0.067695014 0.1498049
000010 ae 46 94 bc df 73 e6 3d fe 33 e7 bd 97 16 af bd
       -0.018100109 0.112525694 -0.112892136 -0.085492305
000020 a8 fd 94 bd 53 78 88 bd bc 93 08 3c 17 99 29 3d
       -0.072749436 -0.06663575 0.008336004 0.041405763
000030 ff 55 80 3d de 4a b0 bd 81 a0 72 bc d3 f2 7b be
       0.062664025 -0.0860803 -0.014808775 -0.24604349
000040 a9 bc 3a be bd bf 3e bd 88 69 f0 3d 12 09 82 3e
       -0.1823603 -0.046569575 0.117388785 0.25397545
000050 58 90 d1 3d 22 30 27 be 6e 48 8e bc 42 6c b4 be
       0.102326095 -0.16326955 -0.017368522 -0.35238844
000060 3f 67 09 bd 16 a3 1f bc 6e 39 3c be cc c5 37 bd
       -0.03354573 -0.009743473 -0.18381283 -0.04486637
000070 aa dc a8 be e8 51 4b be bd 7b e3 bc 57 a7 50 3e
       -0.32980853 -0.19855464 -0.027768964 0.20376335
000080 42 ad 8f bc 71 d4 43 3e 4e 36 f6 bb cb fd 30 be
       -0.01753867 0.19124009 -0.007513798 -0.17284314
000090 ec 42 d4 bd 38 de 49 be 5d 7f 82 be 23 a4 8d 3d
       -0.10364327 -0.19713676 -0.25487795 0.06916072
0000a0 50 fd ae 3c a1 2f c0 3e 53 17 5e be fd 6c be 3c
       0.021361023 0.37536338 -0.21688585 0.023245329
0000b0 56 52 bd be b5 b4 04 3e a6 2a ac be 6d 3d 5e 3d
       -0.3697688 0.1295956 -0.33626288 0.0542578
0000c0 2b 16 32 be b8 30 a3 be 2e 9b f8 bd 4c 9c 19 3b
       -0.17391269 -0.31873107 -0.12138973 0.0023439107
0000d0 1c 2a 26 be d8 dc cc be 81 f8 32 be
       -0.16227001 -0.4001224 -0.17477609

fc1.bias f4 [5]
000000 c2 4e 22 be 1b f0 c6 3d 3f e3 78 3e 2a c8 57 be
       -0.15850356 0.09713765 0.24305438 -0.2107245
000010 0a cc 1d be
       -0.15409866

fc2.weight f4 [1, 5]
000000 f4 f3 77 bc b0 1d 6c 3e d4 69 bd 3e 12 75 b5 be
       -0.015133847 0.230582 0.36994803 -0.3544088
000010 e4 b9 fc bd
       -0.12340143
